2023-09-06 08:55:48 [/data/haofengyuan/Speech_extraction/pTFGridNet-TF-SISDR-master/nnet/libs/trainer.py:172 - INFO ] Create optimizer adam: {'name': 'adam', 'lr': 0.001, 'beta1': 0.9, 'beta2': 0.999, 'l2': 1e-07, 'min_lr': 1e-08, 'logging_period': 1000, 'factor': 0.5, 'gradient_norm': 5.0, 'epochs': 150, 'halve_freq': 2, 'early_stop_freq': 6}
2023-09-06 08:55:48 [/data/haofengyuan/Speech_extraction/pTFGridNet-TF-SISDR-master/nnet/libs/trainer.py:151 - INFO ] Model summary:
pTFGridNet(
  (conv): Sequential(
    (0): Conv2d(2, 64, kernel_size=(3, 3), stride=(1, 1), padding=(1, 1))
    (1): GroupNorm(1, 64, eps=1e-05, affine=True)
  )
  (aux_encoder): AuxEncoder(
    (aux_enc): ModuleList(
      (0): En_unet_module(
        (in_conv): Sequential(
          (0): GateConv2d(
            (conv): Sequential(
              (0): ConstantPad2d(padding=(0, 0, 0, 0), value=0.0)
              (1): Conv2d(64, 128, kernel_size=(1, 5), stride=(1, 2))
            )
          )
          (1): BatchNorm2d(64, eps=1e-05, momentum=0.1, affine=True, track_running_stats=True)
          (2): PReLU(num_parameters=64)
        )
        (encoder): ModuleList(
          (0): Conv2dunit(
            (conv): Sequential(
              (0): Conv2d(64, 64, kernel_size=(1, 3), stride=(1, 2))
              (1): BatchNorm2d(64, eps=1e-05, momentum=0.1, affine=True, track_running_stats=True)
              (2): PReLU(num_parameters=64)
            )
          )
          (1): Conv2dunit(
            (conv): Sequential(
              (0): Conv2d(64, 64, kernel_size=(1, 3), stride=(1, 2))
              (1): BatchNorm2d(64, eps=1e-05, momentum=0.1, affine=True, track_running_stats=True)
              (2): PReLU(num_parameters=64)
            )
          )
          (2): Conv2dunit(
            (conv): Sequential(
              (0): Conv2d(64, 64, kernel_size=(1, 3), stride=(1, 2))
              (1): BatchNorm2d(64, eps=1e-05, momentum=0.1, affine=True, track_running_stats=True)
              (2): PReLU(num_parameters=64)
            )
          )
          (3): Conv2dunit(
            (conv): Sequential(
              (0): Conv2d(64, 64, kernel_size=(1, 3), stride=(1, 2))
              (1): BatchNorm2d(64, eps=1e-05, momentum=0.1, affine=True, track_running_stats=True)
              (2): PReLU(num_parameters=64)
            )
          )
        )
        (decoder): ModuleList(
          (0): Deconv2dunit(
            (deconv): Sequential(
              (0): ConvTranspose2d(64, 64, kernel_size=(1, 3), stride=(1, 2))
              (1): BatchNorm2d(64, eps=1e-05, momentum=0.1, affine=True, track_running_stats=True)
              (2): PReLU(num_parameters=64)
            )
          )
          (1): Deconv2dunit(
            (deconv): Sequential(
              (0): ConvTranspose2d(128, 64, kernel_size=(1, 3), stride=(1, 2))
              (1): BatchNorm2d(64, eps=1e-05, momentum=0.1, affine=True, track_running_stats=True)
              (2): PReLU(num_parameters=64)
            )
          )
          (2): Deconv2dunit(
            (deconv): Sequential(
              (0): ConvTranspose2d(128, 64, kernel_size=(1, 3), stride=(1, 2))
              (1): BatchNorm2d(64, eps=1e-05, momentum=0.1, affine=True, track_running_stats=True)
              (2): PReLU(num_parameters=64)
            )
          )
          (3): Deconv2dunit(
            (deconv): Sequential(
              (0): ConvTranspose2d(128, 64, kernel_size=(1, 3), stride=(1, 2))
              (1): BatchNorm2d(64, eps=1e-05, momentum=0.1, affine=True, track_running_stats=True)
              (2): PReLU(num_parameters=64)
            )
          )
        )
        (out_pool): AvgPool2d(kernel_size=(3, 1), stride=(3, 1), padding=0)
      )
      (1): En_unet_module(
        (in_conv): Sequential(
          (0): GateConv2d(
            (conv): Sequential(
              (0): ConstantPad2d(padding=(0, 0, 0, 0), value=0.0)
              (1): Conv2d(64, 128, kernel_size=(1, 3), stride=(1, 2))
            )
          )
          (1): BatchNorm2d(64, eps=1e-05, momentum=0.1, affine=True, track_running_stats=True)
          (2): PReLU(num_parameters=64)
        )
        (encoder): ModuleList(
          (0): Conv2dunit(
            (conv): Sequential(
              (0): Conv2d(64, 64, kernel_size=(1, 3), stride=(1, 2))
              (1): BatchNorm2d(64, eps=1e-05, momentum=0.1, affine=True, track_running_stats=True)
              (2): PReLU(num_parameters=64)
            )
          )
          (1): Conv2dunit(
            (conv): Sequential(
              (0): Conv2d(64, 64, kernel_size=(1, 3), stride=(1, 2))
              (1): BatchNorm2d(64, eps=1e-05, momentum=0.1, affine=True, track_running_stats=True)
              (2): PReLU(num_parameters=64)
            )
          )
          (2): Conv2dunit(
            (conv): Sequential(
              (0): Conv2d(64, 64, kernel_size=(1, 3), stride=(1, 2))
              (1): BatchNorm2d(64, eps=1e-05, momentum=0.1, affine=True, track_running_stats=True)
              (2): PReLU(num_parameters=64)
            )
          )
        )
        (decoder): ModuleList(
          (0): Deconv2dunit(
            (deconv): Sequential(
              (0): ConvTranspose2d(64, 64, kernel_size=(1, 3), stride=(1, 2))
              (1): BatchNorm2d(64, eps=1e-05, momentum=0.1, affine=True, track_running_stats=True)
              (2): PReLU(num_parameters=64)
            )
          )
          (1): Deconv2dunit(
            (deconv): Sequential(
              (0): ConvTranspose2d(128, 64, kernel_size=(1, 3), stride=(1, 2))
              (1): BatchNorm2d(64, eps=1e-05, momentum=0.1, affine=True, track_running_stats=True)
              (2): PReLU(num_parameters=64)
            )
          )
          (2): Deconv2dunit(
            (deconv): Sequential(
              (0): ConvTranspose2d(128, 64, kernel_size=(1, 3), stride=(1, 2))
              (1): BatchNorm2d(64, eps=1e-05, momentum=0.1, affine=True, track_running_stats=True)
              (2): PReLU(num_parameters=64)
            )
          )
        )
        (out_pool): AvgPool2d(kernel_size=(3, 1), stride=(3, 1), padding=0)
      )
      (2): En_unet_module(
        (in_conv): Sequential(
          (0): GateConv2d(
            (conv): Sequential(
              (0): ConstantPad2d(padding=(0, 0, 0, 0), value=0.0)
              (1): Conv2d(64, 128, kernel_size=(1, 3), stride=(1, 2))
            )
          )
          (1): BatchNorm2d(64, eps=1e-05, momentum=0.1, affine=True, track_running_stats=True)
          (2): PReLU(num_parameters=64)
        )
        (encoder): ModuleList(
          (0): Conv2dunit(
            (conv): Sequential(
              (0): Conv2d(64, 64, kernel_size=(1, 3), stride=(1, 2))
              (1): BatchNorm2d(64, eps=1e-05, momentum=0.1, affine=True, track_running_stats=True)
              (2): PReLU(num_parameters=64)
            )
          )
          (1): Conv2dunit(
            (conv): Sequential(
              (0): Conv2d(64, 64, kernel_size=(1, 3), stride=(1, 2))
              (1): BatchNorm2d(64, eps=1e-05, momentum=0.1, affine=True, track_running_stats=True)
              (2): PReLU(num_parameters=64)
            )
          )
        )
        (decoder): ModuleList(
          (0): Deconv2dunit(
            (deconv): Sequential(
              (0): ConvTranspose2d(64, 64, kernel_size=(1, 3), stride=(1, 2))
              (1): BatchNorm2d(64, eps=1e-05, momentum=0.1, affine=True, track_running_stats=True)
              (2): PReLU(num_parameters=64)
            )
          )
          (1): Deconv2dunit(
            (deconv): Sequential(
              (0): ConvTranspose2d(128, 64, kernel_size=(1, 3), stride=(1, 2))
              (1): BatchNorm2d(64, eps=1e-05, momentum=0.1, affine=True, track_running_stats=True)
              (2): PReLU(num_parameters=64)
            )
          )
        )
        (out_pool): AvgPool2d(kernel_size=(3, 1), stride=(3, 1), padding=0)
      )
      (3): En_unet_module(
        (in_conv): Sequential(
          (0): GateConv2d(
            (conv): Sequential(
              (0): ConstantPad2d(padding=(0, 0, 0, 0), value=0.0)
              (1): Conv2d(64, 128, kernel_size=(1, 3), stride=(1, 2))
            )
          )
          (1): BatchNorm2d(64, eps=1e-05, momentum=0.1, affine=True, track_running_stats=True)
          (2): PReLU(num_parameters=64)
        )
        (encoder): ModuleList(
          (0): Conv2dunit(
            (conv): Sequential(
              (0): Conv2d(64, 64, kernel_size=(1, 3), stride=(1, 2))
              (1): BatchNorm2d(64, eps=1e-05, momentum=0.1, affine=True, track_running_stats=True)
              (2): PReLU(num_parameters=64)
            )
          )
        )
        (decoder): ModuleList(
          (0): Deconv2dunit(
            (deconv): Sequential(
              (0): ConvTranspose2d(64, 64, kernel_size=(1, 3), stride=(1, 2))
              (1): BatchNorm2d(64, eps=1e-05, momentum=0.1, affine=True, track_running_stats=True)
              (2): PReLU(num_parameters=64)
            )
          )
        )
        (out_pool): AvgPool2d(kernel_size=(3, 1), stride=(3, 1), padding=0)
      )
    )
    (out_conv): Linear(in_features=64, out_features=64, bias=True)
    (speaker): Linear(in_features=64, out_features=101, bias=True)
  )
  (fusion_blocks): ModuleList(
    (0): Fusion_module(
      (attn): MultiheadAttention(
        (out_proj): NonDynamicallyQuantizableLinear(in_features=64, out_features=64, bias=True)
      )
      (fusion): Conv2d(128, 64, kernel_size=(1, 1), stride=(1, 1))
    )
    (1): Fusion_module(
      (attn): MultiheadAttention(
        (out_proj): NonDynamicallyQuantizableLinear(in_features=64, out_features=64, bias=True)
      )
      (fusion): Conv2d(128, 64, kernel_size=(1, 1), stride=(1, 1))
    )
    (2): Fusion_module(
      (attn): MultiheadAttention(
        (out_proj): NonDynamicallyQuantizableLinear(in_features=64, out_features=64, bias=True)
      )
      (fusion): Conv2d(128, 64, kernel_size=(1, 1), stride=(1, 1))
    )
  )
  (separate_blocks): ModuleList(
    (0): GridNetBlock(
      (intra_norm): LayerNormalization4D()
      (intra_rnn): LSTM(256, 256, batch_first=True, bidirectional=True)
      (intra_linear): ConvTranspose1d(512, 64, kernel_size=(4,), stride=(2,))
      (inter_norm): LayerNormalization4D()
      (inter_rnn): LSTM(256, 256, batch_first=True, bidirectional=True)
      (inter_linear): ConvTranspose1d(512, 64, kernel_size=(4,), stride=(2,))
      (attn_conv_Q_0): Sequential(
        (0): Conv2d(64, 4, kernel_size=(1, 1), stride=(1, 1))
        (1): PReLU(num_parameters=1)
        (2): LayerNormalization4DCF()
      )
      (attn_conv_K_0): Sequential(
        (0): Conv2d(64, 4, kernel_size=(1, 1), stride=(1, 1))
        (1): PReLU(num_parameters=1)
        (2): LayerNormalization4DCF()
      )
      (attn_conv_V_0): Sequential(
        (0): Conv2d(64, 16, kernel_size=(1, 1), stride=(1, 1))
        (1): PReLU(num_parameters=1)
        (2): LayerNormalization4DCF()
      )
      (attn_conv_Q_1): Sequential(
        (0): Conv2d(64, 4, kernel_size=(1, 1), stride=(1, 1))
        (1): PReLU(num_parameters=1)
        (2): LayerNormalization4DCF()
      )
      (attn_conv_K_1): Sequential(
        (0): Conv2d(64, 4, kernel_size=(1, 1), stride=(1, 1))
        (1): PReLU(num_parameters=1)
        (2): LayerNormalization4DCF()
      )
      (attn_conv_V_1): Sequential(
        (0): Conv2d(64, 16, kernel_size=(1, 1), stride=(1, 1))
        (1): PReLU(num_parameters=1)
        (2): LayerNormalization4DCF()
      )
      (attn_conv_Q_2): Sequential(
        (0): Conv2d(64, 4, kernel_size=(1, 1), stride=(1, 1))
        (1): PReLU(num_parameters=1)
        (2): LayerNormalization4DCF()
      )
      (attn_conv_K_2): Sequential(
        (0): Conv2d(64, 4, kernel_size=(1, 1), stride=(1, 1))
        (1): PReLU(num_parameters=1)
        (2): LayerNormalization4DCF()
      )
      (attn_conv_V_2): Sequential(
        (0): Conv2d(64, 16, kernel_size=(1, 1), stride=(1, 1))
        (1): PReLU(num_parameters=1)
        (2): LayerNormalization4DCF()
      )
      (attn_conv_Q_3): Sequential(
        (0): Conv2d(64, 4, kernel_size=(1, 1), stride=(1, 1))
        (1): PReLU(num_parameters=1)
        (2): LayerNormalization4DCF()
      )
      (attn_conv_K_3): Sequential(
        (0): Conv2d(64, 4, kernel_size=(1, 1), stride=(1, 1))
        (1): PReLU(num_parameters=1)
        (2): LayerNormalization4DCF()
      )
      (attn_conv_V_3): Sequential(
        (0): Conv2d(64, 16, kernel_size=(1, 1), stride=(1, 1))
        (1): PReLU(num_parameters=1)
        (2): LayerNormalization4DCF()
      )
      (attn_concat_proj): Sequential(
        (0): Conv2d(64, 64, kernel_size=(1, 1), stride=(1, 1))
        (1): PReLU(num_parameters=1)
        (2): LayerNormalization4DCF()
      )
    )
    (1): GridNetBlock(
      (intra_norm): LayerNormalization4D()
      (intra_rnn): LSTM(256, 256, batch_first=True, bidirectional=True)
      (intra_linear): ConvTranspose1d(512, 64, kernel_size=(4,), stride=(2,))
      (inter_norm): LayerNormalization4D()
      (inter_rnn): LSTM(256, 256, batch_first=True, bidirectional=True)
      (inter_linear): ConvTranspose1d(512, 64, kernel_size=(4,), stride=(2,))
      (attn_conv_Q_0): Sequential(
        (0): Conv2d(64, 4, kernel_size=(1, 1), stride=(1, 1))
        (1): PReLU(num_parameters=1)
        (2): LayerNormalization4DCF()
      )
      (attn_conv_K_0): Sequential(
        (0): Conv2d(64, 4, kernel_size=(1, 1), stride=(1, 1))
        (1): PReLU(num_parameters=1)
        (2): LayerNormalization4DCF()
      )
      (attn_conv_V_0): Sequential(
        (0): Conv2d(64, 16, kernel_size=(1, 1), stride=(1, 1))
        (1): PReLU(num_parameters=1)
        (2): LayerNormalization4DCF()
      )
      (attn_conv_Q_1): Sequential(
        (0): Conv2d(64, 4, kernel_size=(1, 1), stride=(1, 1))
        (1): PReLU(num_parameters=1)
        (2): LayerNormalization4DCF()
      )
      (attn_conv_K_1): Sequential(
        (0): Conv2d(64, 4, kernel_size=(1, 1), stride=(1, 1))
        (1): PReLU(num_parameters=1)
        (2): LayerNormalization4DCF()
      )
      (attn_conv_V_1): Sequential(
        (0): Conv2d(64, 16, kernel_size=(1, 1), stride=(1, 1))
        (1): PReLU(num_parameters=1)
        (2): LayerNormalization4DCF()
      )
      (attn_conv_Q_2): Sequential(
        (0): Conv2d(64, 4, kernel_size=(1, 1), stride=(1, 1))
        (1): PReLU(num_parameters=1)
        (2): LayerNormalization4DCF()
      )
      (attn_conv_K_2): Sequential(
        (0): Conv2d(64, 4, kernel_size=(1, 1), stride=(1, 1))
        (1): PReLU(num_parameters=1)
        (2): LayerNormalization4DCF()
      )
      (attn_conv_V_2): Sequential(
        (0): Conv2d(64, 16, kernel_size=(1, 1), stride=(1, 1))
        (1): PReLU(num_parameters=1)
        (2): LayerNormalization4DCF()
      )
      (attn_conv_Q_3): Sequential(
        (0): Conv2d(64, 4, kernel_size=(1, 1), stride=(1, 1))
        (1): PReLU(num_parameters=1)
        (2): LayerNormalization4DCF()
      )
      (attn_conv_K_3): Sequential(
        (0): Conv2d(64, 4, kernel_size=(1, 1), stride=(1, 1))
        (1): PReLU(num_parameters=1)
        (2): LayerNormalization4DCF()
      )
      (attn_conv_V_3): Sequential(
        (0): Conv2d(64, 16, kernel_size=(1, 1), stride=(1, 1))
        (1): PReLU(num_parameters=1)
        (2): LayerNormalization4DCF()
      )
      (attn_concat_proj): Sequential(
        (0): Conv2d(64, 64, kernel_size=(1, 1), stride=(1, 1))
        (1): PReLU(num_parameters=1)
        (2): LayerNormalization4DCF()
      )
    )
    (2): GridNetBlock(
      (intra_norm): LayerNormalization4D()
      (intra_rnn): LSTM(256, 256, batch_first=True, bidirectional=True)
      (intra_linear): ConvTranspose1d(512, 64, kernel_size=(4,), stride=(2,))
      (inter_norm): LayerNormalization4D()
      (inter_rnn): LSTM(256, 256, batch_first=True, bidirectional=True)
      (inter_linear): ConvTranspose1d(512, 64, kernel_size=(4,), stride=(2,))
      (attn_conv_Q_0): Sequential(
        (0): Conv2d(64, 4, kernel_size=(1, 1), stride=(1, 1))
        (1): PReLU(num_parameters=1)
        (2): LayerNormalization4DCF()
      )
      (attn_conv_K_0): Sequential(
        (0): Conv2d(64, 4, kernel_size=(1, 1), stride=(1, 1))
        (1): PReLU(num_parameters=1)
        (2): LayerNormalization4DCF()
      )
      (attn_conv_V_0): Sequential(
        (0): Conv2d(64, 16, kernel_size=(1, 1), stride=(1, 1))
        (1): PReLU(num_parameters=1)
        (2): LayerNormalization4DCF()
      )
      (attn_conv_Q_1): Sequential(
        (0): Conv2d(64, 4, kernel_size=(1, 1), stride=(1, 1))
        (1): PReLU(num_parameters=1)
        (2): LayerNormalization4DCF()
      )
      (attn_conv_K_1): Sequential(
        (0): Conv2d(64, 4, kernel_size=(1, 1), stride=(1, 1))
        (1): PReLU(num_parameters=1)
        (2): LayerNormalization4DCF()
      )
      (attn_conv_V_1): Sequential(
        (0): Conv2d(64, 16, kernel_size=(1, 1), stride=(1, 1))
        (1): PReLU(num_parameters=1)
        (2): LayerNormalization4DCF()
      )
      (attn_conv_Q_2): Sequential(
        (0): Conv2d(64, 4, kernel_size=(1, 1), stride=(1, 1))
        (1): PReLU(num_parameters=1)
        (2): LayerNormalization4DCF()
      )
      (attn_conv_K_2): Sequential(
        (0): Conv2d(64, 4, kernel_size=(1, 1), stride=(1, 1))
        (1): PReLU(num_parameters=1)
        (2): LayerNormalization4DCF()
      )
      (attn_conv_V_2): Sequential(
        (0): Conv2d(64, 16, kernel_size=(1, 1), stride=(1, 1))
        (1): PReLU(num_parameters=1)
        (2): LayerNormalization4DCF()
      )
      (attn_conv_Q_3): Sequential(
        (0): Conv2d(64, 4, kernel_size=(1, 1), stride=(1, 1))
        (1): PReLU(num_parameters=1)
        (2): LayerNormalization4DCF()
      )
      (attn_conv_K_3): Sequential(
        (0): Conv2d(64, 4, kernel_size=(1, 1), stride=(1, 1))
        (1): PReLU(num_parameters=1)
        (2): LayerNormalization4DCF()
      )
      (attn_conv_V_3): Sequential(
        (0): Conv2d(64, 16, kernel_size=(1, 1), stride=(1, 1))
        (1): PReLU(num_parameters=1)
        (2): LayerNormalization4DCF()
      )
      (attn_concat_proj): Sequential(
        (0): Conv2d(64, 64, kernel_size=(1, 1), stride=(1, 1))
        (1): PReLU(num_parameters=1)
        (2): LayerNormalization4DCF()
      )
    )
  )
  (deconv): ConvTranspose2d(64, 2, kernel_size=(3, 3), stride=(1, 1), padding=(1, 1))
)
2023-09-06 08:55:48 [/data/haofengyuan/Speech_extraction/pTFGridNet-TF-SISDR-master/nnet/libs/trainer.py:152 - INFO ] Loading model to GPUs:(2,), #param: 7.79M
2023-09-06 08:55:48 [/data/haofengyuan/Speech_extraction/pTFGridNet-TF-SISDR-master/nnet/libs/trainer.py:154 - INFO ] Gradient clipping by 5.0, default L2
2023-09-06 08:55:48 [/data/haofengyuan/Speech_extraction/pTFGridNet-TF-SISDR-master/nnet/libs/trainer.py:203 - INFO ] Set eval mode...
…
